…
multi_loc_shape_2D.py:293: UserWarning: Update your `Conv2D` call to the Keras 2 API: `Conv2D(1, (28, 28), kernel_initializer=<keras.ini..., name="stamp_layer", kernel_constraint=<utils.ker..., activation="linear", padding="valid", use_bias=False)`
  , kernel_initializer=glorot_uniform(seed=r.randint(1e9))
__________________________________________________________________________________________________
Layer (type)                    Output Shape         Param #     Connected to                     
==================================================================================================
main_input (InputLayer)         (64, 84, 84, 1)      0                                            
__________________________________________________________________________________________________
conv2d_1 (Conv2D)               (64, 84, 84, 16)     160         main_input[0][0]                 
__________________________________________________________________________________________________
batch_normalization_1 (BatchNor (64, 84, 84, 16)     64          conv2d_1[0][0]                   
__________________________________________________________________________________________________
dropout_1 (Dropout)             (64, 84, 84, 16)     0           batch_normalization_1[0][0]      
__________________________________________________________________________________________________
max_pooling2d_1 (MaxPooling2D)  (64, 42, 42, 16)     0           dropout_1[0][0]                  
__________________________________________________________________________________________________
conv2d_2 (Conv2D)               (64, 42, 42, 32)     4640        max_pooling2d_1[0][0]            
__________________________________________________________________________________________________
batch_normalization_2 (BatchNor (64, 42, 42, 32)     128         conv2d_2[0][0]                   
__________________________________________________________________________________________________
dropout_2 (Dropout)             (64, 42, 42, 32)     0           batch_normalization_2[0][0]      
__________________________________________________________________________________________________
max_pooling2d_2 (MaxPooling2D)  (64, 21, 21, 32)     0           dropout_2[0][0]                  
__________________________________________________________________________________________________
conv2d_3 (Conv2D)               (64, 21, 21, 64)     18496       max_pooling2d_2[0][0]            
__________________________________________________________________________________________________
batch_normalization_3 (BatchNor (64, 21, 21, 64)     256         conv2d_3[0][0]                   
__________________________________________________________________________________________________
dropout_3 (Dropout)             (64, 21, 21, 64)     0           batch_normalization_3[0][0]      
__________________________________________________________________________________________________
max_pooling2d_3 (MaxPooling2D)  (64, 11, 11, 64)     0           dropout_3[0][0]                  
__________________________________________________________________________________________________
conv2d_4 (Conv2D)               (64, 11, 11, 128)    73856       max_pooling2d_3[0][0]            
__________________________________________________________________________________________________
batch_normalization_4 (BatchNor (64, 11, 11, 128)    512         conv2d_4[0][0]                   
__________________________________________________________________________________________________
dropout_4 (Dropout)             (64, 11, 11, 128)    0           batch_normalization_4[0][0]      
__________________________________________________________________________________________________
max_pooling2d_4 (MaxPooling2D)  (64, 6, 6, 128)      0           dropout_4[0][0]                  
__________________________________________________________________________________________________
conv2d_5 (Conv2D)               (64, 6, 6, 128)      147584      max_pooling2d_4[0][0]            
__________________________________________________________________________________________________
batch_normalization_5 (BatchNor (64, 6, 6, 128)      512         conv2d_5[0][0]                   
__________________________________________________________________________________________________
dropout_5 (Dropout)             (64, 6, 6, 128)      0           batch_normalization_5[0][0]      
__________________________________________________________________________________________________
max_pooling2d_5 (MaxPooling2D)  (64, 3, 3, 128)      0           dropout_5[0][0]                  
__________________________________________________________________________________________________
conv2d_6 (Conv2D)               (64, 1, 1, 256)      295168      max_pooling2d_5[0][0]            
__________________________________________________________________________________________________
batch_normalization_6 (BatchNor (64, 1, 1, 256)      1024        conv2d_6[0][0]                   
__________________________________________________________________________________________________
dropout_6 (Dropout)             (64, 1, 1, 256)      0           batch_normalization_6[0][0]      
__________________________________________________________________________________________________
conv2d_8 (Conv2D)               (64, 1, 1, 128)      32896       dropout_6[0][0]                  
__________________________________________________________________________________________________
batch_normalization_8 (BatchNor (64, 1, 1, 128)      512         conv2d_8[0][0]                   
__________________________________________________________________________________________________
conv2d_9 (Conv2D)               (64, 1, 1, 128)      32896       dropout_6[0][0]                  
__________________________________________________________________________________________________
conv2d_10 (Conv2D)              (64, 1, 1, 114)      14706       batch_normalization_8[0][0]      
__________________________________________________________________________________________________
batch_normalization_9 (BatchNor (64, 1, 1, 128)      512         conv2d_9[0][0]                   
__________________________________________________________________________________________________
batch_normalization_10 (BatchNo (64, 1, 1, 114)      456         conv2d_10[0][0]                  
__________________________________________________________________________________________________
conv2d_11 (Conv2D)              (64, 1, 1, 114)      14706       batch_normalization_9[0][0]      
__________________________________________________________________________________________________
conv2d_7 (Conv2D)               (64, 1, 1, 128)      32896       dropout_6[0][0]                  
__________________________________________________________________________________________________
flatten_1 (Flatten)             (64, 114)            0           batch_normalization_10[0][0]     
__________________________________________________________________________________________________
batch_normalization_11 (BatchNo (64, 1, 1, 114)      456         conv2d_11[0][0]                  
__________________________________________________________________________________________________
batch_normalization_7 (BatchNor (64, 1, 1, 128)      512         conv2d_7[0][0]                   
__________________________________________________________________________________________________
softmax_y (GumbelSampler3)      (64, 2, 57)          0           flatten_1[0][0]                  
__________________________________________________________________________________________________
flatten_2 (Flatten)             (64, 114)            0           batch_normalization_11[0][0]     
__________________________________________________________________________________________________
conv2d_12 (Conv2D)              (64, 1, 1, 20)       2580        batch_normalization_7[0][0]      
__________________________________________________________________________________________________
reshape_1 (Reshape)             (64, 2, 57, 1)       0           softmax_y[0][0]                  
__________________________________________________________________________________________________
softmax_x (GumbelSampler3)      (64, 2, 57)          0           flatten_2[0][0]                  
__________________________________________________________________________multi_loc_shape_2D.py:808: UserWarning: Update your `fit_generator` call to the Keras 2 API: `fit_generator(<itertools..., verbose=2, workers=1, validation_data=<itertools..., steps_per_epoch=128, epochs=800, callbacks=[<keras.ca..., max_queue_size=20, validation_steps=100)`
  , workers = 1
________________________
batch_normalization_12 (BatchNo (64, 1, 1, 20)       80          conv2d_12[0][0]                  
__________________________________________________________________________________________________
permute_1 (Permute)             (64, 2, 1, 57)       0           reshape_1[0][0]                  
__________________________________________________________________________________________________
reshape_2 (Reshape)             (64, 2, 1, 57)       0           softmax_x[0][0]                  
__________________________________________________________________________________________________
flatten_3 (Flatten)             (64, 20)             0           batch_normalization_12[0][0]     
__________________________________________________________________________________________________
dot_product_1 (DotProduct)      (64, 2, 57, 57)      0           permute_1[0][0]                  
                                                                 reshape_2[0][0]                  
__________________________________________________________________________________________________
softmax_stamp (GumbelSampler3)  (64, 2, 10)          0           flatten_3[0][0]                  
__________________________________________________________________________________________________
reshape_3 (Reshape)             (64, 2, 1, 3249)     0           dot_product_1[0][0]              
__________________________________________________________________________________________________
reshape_4 (Reshape)             (64, 2, 1, 10)       0           softmax_stamp[0][0]              
__________________________________________________________________________________________________
dot_product_2 (DotProduct)      (64, 2, 10, 3249)    0           reshape_3[0][0]                  
                                                                 reshape_4[0][0]                  
__________________________________________________________________________________________________
reshape_5 (Reshape)             (64, 2, 57, 57, 10)  0           dot_product_2[0][0]              
__________________________________________________________________________________________________
sum_1 (Sum)                     (64, 57, 57, 10)     0           reshape_5[0][0]                  
__________________________________________________________________________________________________
zero_padding2d_1 (ZeroPadding2D (64, 111, 111, 10)   0           sum_1[0][0]                      
__________________________________________________________________________________________________
stamp_layer (Conv2D)            (64, 84, 84, 1)      7840        zero_padding2d_1[0][0]           
__________________________________________________________________________________________________
min_1 (Min)                     (64, 84, 84, 1)      0           stamp_layer[0][0]                
==================================================================================================
Total params: 683,448
Trainable params: 680,936
Non-trainable params: 2,512
__________________________________________________________________________________________________
Loading image data...
Loaded!
Localizing train data...
('Number of repeats: ', 1)
…
