…
multi_loc_mnist_2D.py:288: UserWarning: Update your `Conv2D` call to the Keras 2 API: `Conv2D(1, (28, 28), kernel_initializer=<keras.ini..., name="stamp_layer", kernel_constraint=<utils.ker..., activation="linear", padding="same", use_bias=False)`
  , kernel_initializer=glorot_uniform(seed=r.randint(1e9))
__________________________________________________________________________________________________
Layer (type)                    Output Shape         Param #     Connected to                     
==================================================================================================
main_input (InputLayer)         (64, 84, 84, 1)      0                                            
__________________________________________________________________________________________________
conv2d_1 (Conv2D)               (64, 84, 84, 16)     160         main_input[0][0]                 
__________________________________________________________________________________________________
batch_normalization_1 (BatchNor (64, 84, 84, 16)     64          conv2d_1[0][0]                   
__________________________________________________________________________________________________
dropout_1 (Dropout)             (64, 84, 84, 16)     0           batch_normalization_1[0][0]      
__________________________________________________________________________________________________
max_pooling2d_1 (MaxPooling2D)  (64, 42, 42, 16)     0           dropout_1[0][0]                  
__________________________________________________________________________________________________
conv2d_2 (Conv2D)               (64, 42, 42, 32)     4640        max_pooling2d_1[0][0]            
__________________________________________________________________________________________________
batch_normalization_2 (BatchNor (64, 42, 42, 32)     128         conv2d_2[0][0]                   
__________________________________________________________________________________________________
dropout_2 (Dropout)             (64, 42, 42, 32)     0           batch_normalization_2[0][0]      
__________________________________________________________________________________________________
max_pooling2d_2 (MaxPooling2D)  (64, 21, 21, 32)     0           dropout_2[0][0]                  
__________________________________________________________________________________________________
conv2d_3 (Conv2D)               (64, 21, 21, 64)     18496       max_pooling2d_2[0][0]            
__________________________________________________________________________________________________
batch_normalization_3 (BatchNor (64, 21, 21, 64)     256         conv2d_3[0][0]                   
__________________________________________________________________________________________________
dropout_3 (Dropout)             (64, 21, 21, 64)     0           batch_normalization_3[0][0]      
__________________________________________________________________________________________________
max_pooling2d_3 (MaxPooling2D)  (64, 11, 11, 64)     0           dropout_3[0][0]                  
__________________________________________________________________________________________________
conv2d_4 (Conv2D)               (64, 11, 11, 128)    73856       max_pooling2d_3[0][0]            
__________________________________________________________________________________________________
batch_normalization_4 (BatchNor (64, 11, 11, 128)    512         conv2d_4[0][0]                   
__________________________________________________________________________________________________
dropout_4 (Dropout)             (64, 11, 11, 128)    0           batch_normalization_4[0][0]      
__________________________________________________________________________________________________
max_pooling2d_4 (MaxPooling2D)  (64, 6, 6, 128)      0           dropout_4[0][0]                  
__________________________________________________________________________________________________
conv2d_5 (Conv2D)               (64, 6, 6, 128)      147584      max_pooling2d_4[0][0]            
__________________________________________________________________________________________________
batch_normalization_5 (BatchNor (64, 6, 6, 128)      512         conv2d_5[0][0]                   
__________________________________________________________________________________________________
dropout_5 (Dropout)             (64, 6, 6, 128)      0           batch_normalization_5[0][0]      
__________________________________________________________________________________________________
max_pooling2d_5 (MaxPooling2D)  (64, 3, 3, 128)      0           dropout_5[0][0]                  
__________________________________________________________________________________________________
conv2d_6 (Conv2D)               (64, 1, 1, 256)      295168      max_pooling2d_5[0][0]            
__________________________________________________________________________________________________
batch_normalization_6 (BatchNor (64, 1, 1, 256)      1024        conv2d_6[0][0]                   
__________________________________________________________________________________________________
dropout_6 (Dropout)             (64, 1, 1, 256)      0           batch_normalization_6[0][0]      
__________________________________________________________________________________________________
conv2d_8 (Conv2D)               (64, 1, 1, 128)      32896       dropout_6[0][0]                  
__________________________________________________________________________________________________
batch_normalization_8 (BatchNor (64, 1, 1, 128)      512         conv2d_8[0][0]                   
__________________________________________________________________________________________________
conv2d_9 (Conv2D)               (64, 1, 1, 128)      32896       dropout_6[0][0]                  
__________________________________________________________________________________________________
pre-softmax_y (Conv2D)          (64, 1, 1, 114)      14706       batch_normalization_8[0][0]      
__________________________________________________________________________________________________
batch_normalization_9 (BatchNor (64, 1, 1, 128)      512         conv2d_9[0][0]                   
__________________________________________________________________________________________________
batch_normalization_10 (BatchNo (64, 1, 1, 114)      456         pre-softmax_y[0][0]              
__________________________________________________________________________________________________
pre-softmax_x (Conv2D)          (64, 1, 1, 114)      14706       batch_normalization_9[0][0]      
__________________________________________________________________________________________________
conv2d_7 (Conv2D)               (64, 1, 1, 128)      32896       dropout_6[0][0]                  
__________________________________________________________________________________________________
flatten_1 (Flatten)             (64, 114)            0           batch_normalization_10[0][0]     
__________________________________________________________________________________________________
batch_normalization_11 (BatchNo (64, 1, 1, 114)      456         pre-softmax_x[0][0]              
__________________________________________________________________________________________________
batch_normalization_7 (BatchNor (64, 1, 1, 128)      512         conv2d_7[0][0]                   
__________________________________________________________________________________________________
softmax_y (GumbelSampler3)      (64, 2, 57)          0           flatten_1[0][0]                  
__________________________________________________________________________________________________
flatten_2 (Flatten)             (64, 114)            0           batch_normalization_11[0][0]     
__________________________________________________________________________________________________
pre-softmax_stamp (Conv2D)      (64, 1, 1, 80)       10320       batch_normalization_7[0][0]      
__________________________________________________________________________________________________
duplicator_y (Duplicate3)       (64, 2, 57, 57)      0           softmax_y[0][0]                  
__________________________________________________________________________________________________
softmax_x (GumbelSampler3)      (64, 2, 57)          0           flatten_2[0][0]                  
__________________________________________________________________________multi_loc_mnist_2D.py:775: UserWarning: Update your `fit_generator` call to the Keras 2 API: `fit_generator(<itertools..., verbose=2, workers=1, validation_data=<itertools..., steps_per_epoch=128, epochs=800, callbacks=[<keras.ca..., max_queue_size=20, validation_steps=100)`
  , workers = 1
________________________
batch_normalization_12 (BatchNo (64, 1, 1, 80)       320         pre-softmax_stamp[0][0]          
__________________________________________________________________________________________________
permute_1 (Permute)             (64, 2, 57, 57)      0           duplicator_y[0][0]               
__________________________________________________________________________________________________
duplicator_x (Duplicate3)       (64, 2, 57, 57)      0           softmax_x[0][0]                  
__________________________________________________________________________________________________
flatten_3 (Flatten)             (64, 80)             0           batch_normalization_12[0][0]     
__________________________________________________________________________________________________
multiply_1 (Multiply)           (64, 2, 57, 57)      0           permute_1[0][0]                  
                                                                 duplicator_x[0][0]               
__________________________________________________________________________________________________
softmax_stamp (GumbelSampler3)  (64, 2, 40)          0           flatten_3[0][0]                  
__________________________________________________________________________________________________
duplicator_coords (Duplicate3)  (64, 2, 40, 57, 57)  0           multiply_1[0][0]                 
__________________________________________________________________________________________________
duplicator_stamps_y (Duplicate3 (64, 2, 57, 40)      0           softmax_stamp[0][0]              
__________________________________________________________________________________________________
permute_2 (Permute)             (64, 2, 57, 57, 40)  0           duplicator_coords[0][0]          
__________________________________________________________________________________________________
duplicator_stamps_xy (Duplicate (64, 2, 57, 57, 40)  0           duplicator_stamps_y[0][0]        
__________________________________________________________________________________________________
multiply_2 (Multiply)           (64, 2, 57, 57, 40)  0           permute_2[0][0]                  
                                                                 duplicator_stamps_xy[0][0]       
__________________________________________________________________________________________________
sum_1 (Sum)                     (64, 57, 57, 40)     0           multiply_2[0][0]                 
__________________________________________________________________________________________________
zero_padding2d_1 (ZeroPadding2D (64, 84, 84, 40)     0           sum_1[0][0]                      
__________________________________________________________________________________________________
stamp_layer (Conv2D)            (64, 84, 84, 1)      31360       zero_padding2d_1[0][0]           
__________________________________________________________________________________________________
min_1 (Min)                     (64, 84, 84, 1)      0           stamp_layer[0][0]                
==================================================================================================
Total params: 714,948
Trainable params: 712,316
Non-trainable params: 2,632
__________________________________________________________________________________________________
Loading image data...
Loaded!
Localizing train data...
('Number of repeats: ', 1)
…
